C2/dense1_weights.npy (npy, 18560 bytes, 1 tensors)

array f4 [96, 48]
000000 4f 2c 49 bc b0 55 7e be 89 07 ef be 37 4d 26 3f
       -0.01227863 -0.24837375 -0.46685436 0.6496157
000010 36 57 8f 3f 2c 10 47 bf 3f 10 30 bf 3b 8c 00 3f
       1.119849 -0.7775905 -0.6877479 0.50213975
000020 77 0c 9f 3c 4b 06 11 bf 46 a1 60 3f 45 c2 65 bf
       0.019415123 -0.5665023 0.87746084 -0.89749557
000030 b8 e5 27 3f a9 69 a4 3f c2 07 e4 3e 27 01 f0 bf
       0.655849 1.2844745 0.4453717 -1.8750352
000040 bf 4b c5 3f c4 ed e3 3f 8c f9 5e bf b5 ba 49 bf
       1.5413741 1.7806935 -0.8709953 -0.7880052
000050 19 db bd be 5a ae 16 3f fb 2d ef bf 1e aa 28 be
       -0.3708122 0.5885979 -1.8685907 -0.16471145
000060 20 1e 7f bf 4d 0b a8 bf ff 75 77 40 d1 d1 01 be
       -0.9965534 -1.3128449 3.866577 -0.12677695
000070 8e 23 18 c0 13 0f 81 be f8 d7 39 3f 4f 60 88 bf
       -2.37717 -0.25206813 0.7259517 -1.0654391
000080 33 b5 80 bf b3 9d c6 3f cb 05 af bf 07 4d fc 3e
       -1.0055298 1.5516876 -1.3673643 0.49277517
000090 67 ce 20 c0 70 9e ee bf 07 26 97 bf 5d c1 0d 3f
       -2.5125978 -1.8642101 -1.180848 0.55373174
0000a0 47 41 98 be b8 ed 8c be 98 b9 23 bf a6 e0 25 3e
       -0.29737303 -0.27525115 -0.6395507 0.16198978
0000b0 e0 f4 c0 3f ea 71 97 3f 4e e1 c7 3f 7c fb 28 c0
       1.507473 1.1831639 1.5615633 -2.6403494
0000c0 78 13 60 bf 93 6f 6c be 64 74 48 3f ee a0 7b 3f
       -0.87529707 -0.23089437 0.783026 0.98292434
0000d0 47 3d a9 3f 86 fe 57 3e b9 e8 70 3f 71 e6 8f bf
       1.3221825 0.21093187 0.94105107 -1.12422
0000e0 44 db a0 bf a6 b3 8d bf 21 d0 91 3f e0 d1 b9 3f
       -1.2566915 -1.1070449 1.1391641 1.4517174
0000f0 09 d4 ef 3d ed f8 07 bf 89 aa 7d bf 9f 49 c9 be
       0.11710364 -0.53114206 -0.9908834 -0.3931398
000100 21 68 63 3f c0 ce 98 3f 3a 5b ea bf c3 34 9f 3f
       0.88830763 1.1938095 -1.830909 1.2437977
000110 0b 79 0d 3f 0c 1a 73 bd 0d 13 fa 3e 21 4a ba bf
       0.5526282 -0.059351012 0.4884266 -1.4553872
000120 a2 da 1d 40 25 28 f0 be fa 6b ae bf 5b ca d9 3d
       2.4664693 -0.46905628 -1.3626702 0.10634299
000130 43 8a a8 3e 44 0f 52 3f 4f a4 be bf 76 e4 d9 bf
       0.32917985 0.82054543 -1.4893893 -1.7022846
000140 98 9d cf bf d6 07 90 3f c5 d3 ca 3f 43 be ab 3f
       -1.6219969 1.1252391 1.5845877 1.3417438
000150 7e 13 0b 3f ee 9d 94 3f 80 15 cb be e3 81 43 bc
       0.5432662 1.1610696 -0.3966484 -0.011932823
000160 b9 d6 ee 3d 6f 21 c0 be 66 00 92 ba 62 d1 fb 3e
       0.11662049 -0.37525508 -0.0011139035 0.49183184
000170 2a ce 2d bd 71 ec bc be 64 c4 24 3d 06 39 09 bf
       -0.04243294 -0.3689914 0.040226355 -0.53602636
000180 fc 73 f0 bd c2 5f 74 bf be be d0 3d da 1c 6e bd
       -0.11740872 -0.95458615 0.10192631 -0.058132984
000190 16 22 57 bf 3c d7 80 be 49 e2 83 be 61 b0 2e 3f
       -0.84036386 -0.2516421 -0.2575858 0.6823788
0001a0 4a f3 10 bf ff da 86 be ee 79 92 3f c4 3a 13 c0
       -0.5662123 -0.26338956 1.144346 -2.3004618
0001b0 29 f1 91 3e 44 a4 61 3f 00 d8 04 bf 62 ab 0c 3f
       0.28504303 0.88141274 -0.5189209 0.5494901
0001c0 6b dc 59 be d3 b2 6e be d0 d5 ef bf ed 9d 10 c0
       -0.21275489 -0.23310404 -1.8737125 -2.259639
0001d0 9f 4e a1 be e0 c3 22 bf a0 1b 0b c0 29 fb 0d 3f
       -0.31505296 -0.6358013 -2.173561 0.55461365
0001e0 08 b7 24 40 af 80 58 bf 65 8e 29 bf 2c 9b 15 bf
       2.5736713 -0.84571356 -0.662329 -0.584399
0001f0 cb e9 9f be a8 8e 45 bf da 09 b0 bf ae bd 0c 3f
       -0.31233057 -0.771708 -1.3753006 0.5497693
000200 4b 7d 4b 3f e5 18 06 3f 5a 65 ea bf ac 21 02 bf
       0.79488057 0.52381736 -1.831218 -0.5083263
000210 4c 27 01 be ef 22 7d 3f ce 10 83 3f ba d1 aa 3f
       -0.12612647 0.9888143 1.0239503 1.3345253
000220 56 99 ae 3e c8 5e 33 3f a8 33 0e bf 60 c9 45 3f
       0.3410136 0.700665 -0.5554757 0.772604
000230 67 7f c5 3d 2f c0 2c bf 93 1e 87 bd 90 89 26 3f
       0.09643441 -0.6748075 -0.065976284 0.65053654
000240 62 66 90 bf c9 61 04 40 3a c8 dd 3e 71 9a 70 bf
       -1.1281245 2.0684683 0.43316823 -0.9398566
000250 2e 1a 56 bf 25 0b 9c bb a1 39 51 3f 2c ef ae be
       -0.836337 -0.0047620707 0.8172856 -0.3416685
000260 58 4f 19 3c b4 e0 1d 3d 94 8c cd bf 47 48 b8 bf
       0.009357296 0.03854437 -1.6058526 -1.4397057
000270 0f 18 9a be b9 77 89 bf d2 9b 6c 3f f7 cd 8c bf
       -0.3009648 -1.0739661 0.9242526 -1.1000355
000280 68 b3 23 3e 49 39 64 3f fc 8a df be f9 19 61 be
       0.15986407 0.8914991 -0.43660724 -0.21982564
000290 79 61 8e 3f 4d 01 a6 3f 8d df 65 bd a5 e9 88 3f
       1.1123496 1.2969147 -0.056121398 1.0696303
0002a0 97 24 ca bd 4f d4 ed 3d 44 85 5d 3e a3 9d 9b be
       -0.0987026 0.1161276 0.21632868 -0.30393705
0002b0 57 89 bb bf 28 47 6c 3f 74 e3 58 bf 13 42 2e bf
       -1.4651288 0.92296076 -0.84722066 -0.6806957
0002c0 13 69 f7 3f d0 5e 56 3e a1 ed 33 40 c2 5e a2 3f
       1.9328941 0.20934606 2.8113787 1.2685168
0002d0 42 19 cd 3e 4c 10 8e bf dd 1e ac 3d 3b 59 cb 3f
       0.40058333 -1.1098723 0.08404324 1.5886606
0002e0 77 b9 88 3f d8 98 82 bf 39 b9 bb bf bd 70 de 3e
       1.0681599 -1.0202894 -1.46659 0.43445387
0002f0 40 a3 d7 be 86 30 9c 3f 9f c1 98 be 05 e9 a9 3f
       -0.42116737 1.2202308 -0.2983522 1.3274237
000300 11 e7 32 be 14 88 8f bf 60 fe 63 3e 63 f9 6b bf
       -0.17470957 -1.1213403 0.22265005 -0.9217741
000310 e3 ef 24 3f d6 e3 8a be 11 b0 1d bf 87 38 a4 3e
       0.6442854 -0.2712695 -0.6159678 0.32074377
000320 01 0b 30 3f 47 5a 41 bf a1 41 84 bf b4 d7 f6 3f
       0.6876679 -0.7552838 -1.0332528 1.9284577
000330 b3 2a b8 bf 49 88 77 bf 3e a6 4b bf 0f a6 ba be
       -1.4388031 -0.9669233 -0.7955054 -0.36454818
000340 67 b4 e0 3f f9 78 5f 3f e3 9a 26 3f 41 29 86 3f
       1.7555054 0.87293965 0.6508009 1.048134
000350 e3 d8 a9 be 7e fb 19 40 83 6c 0a 40 07 f7 86 3e
       -0.33173284 2.4059749 2.162873 0.26360342
000360 2c 10 12 3e de bd 9b 3e f8 1e 0e 40 fe 51 42 bf
       0.14263982 0.30418295 2.2206402 -0.7590636
000370 d7 52 2c 3f 1a 4f 02 bf fb fb 4d 3c fb 36 53 bf
       0.67313904 -0.5090195 0.012572284 -0.8250577
000380 9c 14 84 3f f4 4d c3 bf 4b 4e 97 bf 9b bb 11 3f
       1.031879 -1.5258164 -1.1820768 0.5692689
000390 2d f8 a8 3f d0 75 90 3e 2d 01 0f 3f da 0f 0a 3f
       1.3200737 0.28214884 0.5586117 0.5393044
0003a0 4d 4f 61 bf 6f cd 21 be 6f e2 e2 3f b4 7d 44 3e
       -0.8801163 -0.15801023 1.7725352 0.19188577
0003b0 22 41 c8 3e a7 5f 6b 3f ea 58 42 3e 5d 24 2f 3f
       0.39112192 0.9194283 0.1897923 0.6841486
0003c0 ca 7c e2 bd e0 68 ea 3f 42 fe 38 3e d9 cd f1 3e
       -0.11058958 1.8313255 0.18065742 0.47227362
0003d0 64 d3 b0 3f ac 88 4e bf 5b e7 2a be 94 08 ff 3e
       1.3814511 -0.80677295 -0.16689818 0.49811232
0003e0 1b 65 90 3f 2b d1 3f 3f 59 cb ac bf 56 3f 8e bf
       1.1280855 0.7492854 -1.3499557 -1.1113079
0003f0 16 e2 67 3f 6b 17 b8 bd 61 3e 06 3f 05 ae 48 bf
       0.90579355 -0.089888416 0.5243893 -0.7839053
