C2/cnn/dense1_weights.npy (npy, 18560 bytes, 1 tensors)

array f4 [96, 48]
1.9475456 1.0985186 1.1600026 0.34868413 -0.94721985 0.511552 -8.2138366e-05 -0.10586183
-0.029529447 0.90957123 2.1834867 2.3704796 2.5732083 -0.590411 1.2646159 -1.6574072
1.5655175 -0.7561824 1.1354654 0.0077173715 1.3121274 0.086696915 -0.14444913 -0.5035122
-0.45527187 -1.1107516 -0.07585027 -0.07322161 1.6797384 -1.5351907 -1.5515202 -1.0103557
0.67307633 -0.55290437 0.11902973 -0.28915462 -0.485632 -0.09010785 0.6186588 -0.97821337
0.5340932 1.3320657 -1.2237626 1.399795 0.4706742 2.1444166 -1.8997531 0.5573041
-1.3246528 1.189029 0.024432095 -0.3932297 1.8528576 0.9680656 -0.87488115 1.1224061
-1.3647827 0.95623696 -1.1830484 0.9973243 -0.43285257 0.61812305 -0.6284394 0.79380864
-2.022859 0.9709419 -0.7342056 0.4474532 0.09457004 1.5354792 -1.3582529 1.0963751
2.7044806 -0.1420002 0.85121506 0.19088362 -0.48354176 1.5927628 -1.0191228 -0.6994352
-0.71994996 -0.20253523 0.0597346 -2.0358605 -2.6933522 -0.5735369 0.86718833 -1.6576425
0.8024604 -1.4380355 0.24467385 -0.96754026 2.26492 -1.3262886 0.20532307 0.23049448
-1.0999974 -0.18262962 0.27710003 0.5791211 -0.9850474 -0.39538184 -0.066512205 1.5919011
-1.6750991 -0.23953229 -0.96502364 -0.5721399 0.20845498 -0.31092474 -1.1458902 -0.71404016
0.5848901 0.27443668 0.99612343 -1.0872669 1.4075508 1.2373474 -1.7589134 -0.9450633
0.1414332 0.1435489 2.0312436 0.38464 -0.97781926 1.7500086 1.0845947 -0.46418712
0.8180957 1.7642037 0.62703496 -1.372589 -2.5228329 0.6325721 -0.53896457 -1.2255816
-0.5354062 -0.9704074 1.4802642 0.292058 -0.496987 -0.31541306 -0.10606947 0.7320055
0.31692678 -0.992044 -1.7944713 -1.1726745 -1.1396519 -0.4701792 0.44967124 0.38113877
-0.7804598 1.3382812 1.159639 -1.6462749 -0.31220505 0.078382015 -0.91509074 0.92585635
-0.121797286 -0.25462896 -0.12207393 -0.020524524 -1.0222025 -1.7171869 -0.42347288 0.27624586
-1.9759841 -0.89245796 -0.613104 -0.7271563 1.4383198 1.9550942 -0.3100816 0.24936615
0.14657773 0.3130414 -1.3126624 -1.0570186 -0.24739538 0.33857352 0.5023314 2.0983682
0.8761792 -0.07199739 -2.2911184 0.24955541 -0.7400065 -1.8594192 1.0739392 -0.11939817
1.4513683 -1.7573135 -0.47846842 1.1076267 -0.5646306 -1.8671359 -0.8877887 -1.0616758
-0.6362408 0.5782133 -0.780555 0.6856518 0.15784942 0.67343974 -0.11084585 -0.0029547347
-1.3182567 0.057495564 -0.60647815 -0.7386345 -0.030916667 -0.3491806 -1.5272635 0.2801721
-1.9874613 -0.18500906 -2.469244 -0.60581356 -0.36853147 0.7377504 -1.863921 -0.13588838
3.1281047 -0.054231815 0.48140535 0.48077333 1.1506077 -1.0406827 1.361545 -0.35713387
2.4969137 0.97027373 1.2337819 -0.93147665 0.8321046 0.074320816 -1.5293385 0.5354631
-1.2743893 -1.7138745 0.61261904 -1.6148871 -0.19148882 -0.9756209 -0.8025397 0.13999312
-0.75962085 -0.5682902 1.4256895 1.9562554 -0.47692445 -0.21347335 -1.2545966 0.7009202
00000000: 2d49 f93f 429c 8c3f f77a 943f ba86 b23e
00000010: 007d 72bf 12f5 023f b341 acb8 16ce d8bd
00000020: bde7 f1bc a9d9 683f 3fbe 0b40 f0b5 1740
00000030: 72af 2440 2d25 17bf efde a13f eb25 d4bf
00000040: e162 c83f 2b95 41bf ee56 913f 01e2 fc3b
00000050: caf3 a73f 278e b13d 79ea 13be 2de6 00bf
00000060: 6519 e9be 1c2d 8ebf 6357 9bbd 36f5 95bd
00000070: ab01 d73f 2181 c4bf 3798 c6bf 5653 81bf
00000080: bb4e 2c3f 248b 0dbf dcc5 f33d 130c 94be
00000090: c2a4 f8be 778a b8bd 6c60 1e3f 316c 7abf
000000a0: 55ba 083f 2181 aa3f 41a4 9cbf 7c2c b33f
000000b0: 35fc f03e 1f3e 0940 1c2b f3bf 7bab 0e3f
000000c0: 398e a9bf 1a32 983f d125 c83c 6755 c9be
000000d0: 702a ed3f 26d3 773f 36f8 5fbf 01ab 8f3f
000000e0: 33b1 aebf f2cb 743f 216e 97bf a550 7f3f
000000f0: da9e ddbe 503d 1e3f 68e1 20bf 0b37 4b3f
00000100: 8676 01c0 a68f 783f e6f4 3bbf 9618 e53e
00000110: f0ad c13d 958a c43f 3bdb adbf 0556 8c3f
00000120: 3616 2d40 8068 11be 3be9 593f ff76 433e
00000130: c992 f7be a7df cb3f 9e72 82bf 2f0e 33bf
00000140: a44e 38bf 6565 4fbe 45ac 743d 8a4b 02c0
00000150: e25f 2cc0 50d3 12bf 0e00 5e3f a12d d4bf
00000160: 0b6e 4d3f 8c11 b8bf c88b 7a3e b8b0 77bf
00000170: 73f4 1040 d3c3 a9bf 3640 523e bf06 6c3e
00000180: b7cc 8cbf 4203 3bbe 0ee0 8d3e 4841 143f
00000190: 112c 7cbf 7d6f cabe 8d37 88bd 6ac3 cb3f
000001a0: a669 d6bf f447 75be ca0b 77bf c377 12bf
000001b0: 3975 553e 8731 9fbe 88ac 92bf 56cb 36bf
000001c0: 5cbb 153f f782 8c3e f201 7f3f 902b 8bbf
000001d0: a02a b43f 6661 9e3f 1324 e1bf abef 71bf
000001e0: ddd3 103e 7cfe 123e e5ff 0140 89ef c43e
000001f0: 5d52 7abf 4800 e03f 00d4 8a3f efa9 edbe
00000200: b86e 513f 6dd1 e13f 5d85 203f ffb0 afbf
00000210: 1876 21c0 3ff0 213f 95f9 09bf dcdf 9cbf
00000220: 6110 09bf 9f6c 78bf 4c79 bd3f a088 953e
00000230: 1475 febe d27d a1be f33a d9bd b664 3b3f
00000240: 3a44 a23e 98f6 7dbf 3cb1 e5bf 331a 96bf
00000250: 1de0 91bf 54bb f0be 4f3b e63e 9f24 c33e
00000260: 37cc 47bf cc4c ab3f 0d6f 943f 23b9 d2bf
00000270: 57d9 9fbe c086 a03d 6343 6abf ec04 6d3f
00000280: db70 f9bd ba5e 82be e601 fabd 0c23 a8bc
00000290: 88d7 82bf c8cc dbbf 70d1 d8be 1970 8d3e
000002a0: 0ced fcbf 2078 64bf 62f4 1cbf ea26 3abf
000002b0: dd1a b83f 8740 fa3f 04c3 9ebe d759 7f3e
000002c0: 7918 163e f646 a03e 5205 a8bf 634c 87bf
000002d0: 3755 7dbe 8259 ad3e ca98 003f aa4b 0640
000002e0: 484d 603f 5e73 93bd afa1 12c0 748b 7f3e
000002f0: 1171 3dbf 7301 eebf d776 893f 0787 f4bd
00000300: 70c6 b93f a6ef e0bf d0f9 f4be b6c6 8d3f
00000310: a28b 10bf 4ffe eebf 1f46 63bf fee4 87bf
00000320: ade0 22bf c905 143f 74d2 47bf e086 2f3f
00000330: 47a3 213e 8c66 2c3f 2603 e3bd 39a4 41bb
00000340: a3bc a8bf 7880 6b3d 2742 1bbf 2717 3dbf
00000350: f344 fdbc cdc7 b2be 5f7d c3bf b872 8f3e
00000360: 2265 febf 0473 3dbe 1808 1ec0 9916 1bbf
00000370: 28b0 bcbe 36dd 3c3f f794 eebf 5326 0bbe
00000380: de32 4840 2e22 5ebd c37a f63e ec27 f63e
00000390: 1d47 933f 1735 85bf 1b47 ae3f 40da b6be
000003a0: 6fcd 1f40 dc63 783f 91ec 9d3f 4175 6ebf
000003b0: cf04 553f 8335 983d 5dc1 c3bf 1c14 093f
000003c0: 301f a3bf 3d60 dbbf 9ad4 1c3f 9fb4 cebf
000003d0: a515 44be 4bc2 79bf 3e73 4dbf 5b5a 0f3e
000003e0: 8376 42bf 777b 11bf fe7c b63f 9466 fa3f
000003f0: 712f f4be c298 5abe 9f96 a0bf 826f 333f
