C2/cnn/dense1_weights.npy (npy, 18560 bytes, 1 tensors)

array f4 [96, 48]
000000 a9 b2 1b bf fe 2e 80 bf d9 9d 98 3f aa d5 6e bd
       -0.6081949 -1.0014341 1.1923171 -0.058309235
000010 d2 0f 91 bf 4f a0 3b 40 cf fa c3 3d 6a e8 70 bf
       -1.1332953 2.9316595 0.09569322 -0.94104636
000020 fb a3 90 3e b9 6b be bf 93 f8 78 bf 56 99 76 3f
       0.28250107 -1.4876624 -0.97254294 0.9632772
000030 04 6a 1f bf 98 4a 2e bd e4 de 70 bf 35 80 6a bf
       -0.6227114 -0.042551607 -0.94090104 -0.9160188
000040 06 26 55 3f 5b ad d9 be e6 45 cc be 91 17 1a bf
       0.83261144 -0.42515072 -0.39897078 -0.6019221
000050 ed bb 26 3f 74 11 0c 3e b6 e7 ff bf 43 23 8d bf
       0.651305 0.13678533 -1.9992588 -1.1026386
000060 2c b4 43 bf 74 be b7 3d 0e 81 b1 bf 82 8a 80 bf
       -0.76446795 0.08971873 -1.3867509 -1.0042269
000070 a6 12 6d bf bd a0 a5 bf 28 80 93 3f 1c 63 c7 be
       -0.9260658 -1.2939678 1.1523485 -0.38942802
000080 70 84 8c 3f b4 33 d9 bd 98 13 94 be 90 65 69 3f
       1.0977917 -0.10605565 -0.289212 0.911706
000090 13 c7 65 3f 0d e9 9e be 5b 81 81 bf 53 6d d2 3f
       0.8975689 -0.3103718 -1.0117601 1.6439613
0000a0 e4 f8 e0 be c0 8f c2 bf ab 55 3a 3f a0 3a 12 3f
       -0.43939888 -1.5200119 0.7278697 0.57120705
0000b0 3e 34 e7 bf 32 f6 37 be 5a 12 3b bf 26 60 99 3f
       -1.8062818 -0.1796501 -0.7307488 1.1982467
0000c0 da b3 4b 3f 70 04 8b 3e 95 51 91 3f 6d fe 9c be
       0.79571307 0.27151823 1.1353022 -0.3066286
0000d0 d9 e5 de bf 43 88 93 bf e7 43 18 3f 49 a5 3a c0
       -1.7413894 -1.1525959 0.5947861 -2.9163382
0000e0 44 52 cb bf f4 6f 2a bf d3 ec c8 bf 46 9b c7 3e
       -1.588448 -0.66577077 -1.5697273 0.38985652
0000f0 ad cd a7 bd 14 e6 4a 3f 4d df 87 bf 2c bf de bf
       -0.081935264 0.7925732 -1.0615021 -1.7402091
000100 f0 cf 89 bf f9 c5 c8 be eb cf eb bf 76 d2 3f bd
       -1.0766582 -0.3921354 -1.8422827 -0.04683157
000110 e7 79 e1 3d e2 6f c3 bf 2e b4 d9 3e 03 e4 41 bf
       0.11009579 -1.5268519 0.4252028 -0.75738543
000120 a8 c0 35 40 98 0d f2 3f 5e 1e db 3f 85 2a c6 be
       2.8398838 1.8910398 1.7118642 -0.38704315
000130 80 66 db bf 71 00 96 bf 0a 58 98 bf bc 64 df 3f
       -1.7140656 -1.1718885 -1.1901867 1.7452617
000140 5a dd b2 3e 8c 87 98 3e af 78 65 be a3 7d 82 bc
       0.34934503 0.29790914 -0.22409318 -0.015929049
000150 18 7f 00 40 89 ca eb 3f 53 6d 96 bf 88 3d 0b bf
       2.0077572 1.8421184 -1.1752113 -0.54390764
000160 31 5f ca 3f dc e6 94 3e 60 ed 83 3f d8 93 9e bf
       1.58103 0.29082382 1.0306816 -1.2388868
000170 85 59 62 3f e5 06 05 c0 69 80 c7 3e 42 16 dc be
       0.88417846 -2.0785458 0.38965157 -0.4298573
000180 32 a6 11 3f 9a 41 e4 be cf 99 9f 3e b7 ad 90 3f
       0.5689422 -0.445813 0.31172034 1.1303014
000190 6a 29 30 bf c1 37 2d 3e 21 db ec 3e 55 ec 24 3e
       -0.6881319 0.169158 0.46260932 0.16105779
0001a0 59 60 2a bf 55 ee 62 3f 42 f8 28 3e 74 cb ef 3e
       -0.66553265 0.88644916 0.16500953 0.4683491
0001b0 7b 68 31 3e 30 24 da bf c0 7d 4c bd ac fa 24 be
       0.17325012 -1.7042294 -0.049924612 -0.16111249
0001c0 29 ac 98 3e 12 ce bb bf 92 a3 75 bf 1f 2c 10 bf
       0.29818848 -1.4672263 -0.95952713 -0.56317323
0001d0 57 8e c7 bf fd 84 10 be 8c 2a f6 3e 03 11 26 bf
       -1.5590314 -0.14113231 0.48079336 -0.6486971
0001e0 ad cc f4 bf 14 e2 cd be 1a da 30 40 22 92 c3 be
       -1.9124962 -0.40211546 2.7633119 -0.38197428
0001f0 31 3c 31 bf 7f e4 b9 3e d8 58 b7 be e8 fc 06 be
       -0.6923247 0.3630714 -0.3580997 -0.13182414
000200 b5 b2 ef 3f 18 96 f9 3d a8 55 0f 3f a7 5d f5 bf
       1.8726412 0.12186831 0.55990076 -1.9169205
000210 e4 ee 6d be b6 3e 8c 3f 76 57 0b c0 bc 9a a6 bf
       -0.23235661 1.0956638 -2.1772132 -1.3015971
000220 d6 d6 6a bc 8b 18 b0 3d d0 83 35 3f 2f 16 03 bf
       -0.014333447 0.08598431 0.70904255 -0.51205724
000230 55 fa 19 bf bf 2e a8 bf 3e 00 62 3f 01 9c 44 3f
       -0.601476 -1.3139266 0.8828162 0.76800543
000240 cd 70 33 bf 4d 95 50 3f d0 62 cc be 02 bc 7b 3f
       -0.70093995 0.81477815 -0.39919138 0.9833375
000250 be 82 87 bf 2c e6 f3 be 5e e6 30 3d c6 07 49 bf
       -1.0586774 -0.47636545 0.043188445 -0.78527486
000260 bc f7 f6 be a4 8f 52 bf 86 eb f1 be cc fd 74 3f
       -0.4823588 -0.8225043 -0.47250003 0.95699763
000270 bd dc b6 3e 83 d9 35 bf fc 39 38 3f d3 63 17 3f
       0.35715285 -0.7103502 0.7196348 0.59136695
000280 d2 64 43 ba 5f 5c c6 bf aa 0f 73 bd d6 a6 06 c0
       -0.0007453683 -1.549694 -0.05934111 -2.1039329
000290 86 35 eb bf 73 b1 2f bf c7 75 de bf 37 99 b3 be
       -1.8375709 -0.6863014 -1.7379693 -0.3507783
0002a0 15 49 c8 bf 0c 69 b8 be 9f f9 0a 3f cc 0e aa be
       -1.5647303 -0.36017644 0.5428714 -0.33214414
0002b0 6a fd db 3f 93 49 50 bf e3 3b 17 3f 13 1b 80 bf
       1.7186711 -0.81362265 0.59075755 -1.0008262
0002c0 f8 94 9f bf ca be 9e bf 9c db 3e 3f 5b 29 89 bd
       -1.2467337 -1.2401974 0.7455385 -0.06697341
0002d0 3c e7 3f 3f 47 62 0a bf e4 60 15 40 1e 77 58 bf
       0.7496221 -0.5405621 2.3340387 -0.8455676
0002e0 77 97 9b 3e 5e e6 1e 3f 38 fb ea bf a3 5f 03 3f
       0.30388996 0.6207026 -1.8357916 0.51317805
0002f0 19 a8 b0 3e 95 fd f6 3e d0 45 98 3e 0e 81 8e bf
       0.34503248 0.48240343 0.29740763 -1.1133134
000300 b1 92 04 be f6 78 12 40 f4 69 4f bd 40 83 f3 3f
       -0.12946583 2.2886329 -0.050638154 1.9024429
000310 df aa 23 c0 0f 3d 2c bf de 6e 6a 3f cb 5e 89 bf
       -2.5573041 -0.6728067 0.9157542 -1.0732054
000320 40 ff 7e be 0d d5 c2 bf d0 65 24 be 27 ec 85 3f
       -0.24902058 -1.5221268 -0.16054463 1.0462693
000330 a2 2a ca bd 0b 71 9b be 2e 4a 62 3f 0f fe b4 3f
       -0.09871413 -0.30359682 0.8839444 1.4140033
000340 6b 3c 3f 3f 62 76 c6 3f 61 87 83 bf 87 5d a0 bf
       0.74701566 1.5504878 -1.0275689 -1.2528542
000350 4b f1 da bf ac e0 1f bf f5 79 7c bf a0 ac ed be
       -1.7104887 -0.624522 -0.9862359 -0.46420765
000360 49 b1 e1 be 40 f1 de be 43 ab ea 3e 62 43 17 c0
       -0.4408057 -0.43543434 0.45833787 -2.3634877
000370 a1 e3 17 3f ef 79 c7 bf bd 51 de bf 3d d2 10 bf
       0.5933171 -1.5584086 -1.7368695 -0.565708
000380 5c 07 fe 3e f4 6f f6 3e ff 50 bb 3d 5a e9 2f 3e
       0.4961499 0.48132288 0.09146308 0.1717886
000390 c8 48 57 bf d6 30 75 be 29 ae bd bf 3d 33 c7 3e
       -0.8409543 -0.2394441 -1.4818774 0.3890628
0003a0 0b b1 fe 3d b5 ab 20 c0 05 a9 cb bf 74 18 4d 3f
       0.12436112 -2.5104802 -1.5910956 0.8011544
0003b0 7d ec 6b bd 8b 1f 22 3d 57 24 a2 3e 3a 28 65 3f
       -0.05759858 0.039580863 0.3166835 0.89514506
0003c0 03 7a 5f bf 8d b5 be be 53 77 d6 3f 60 ff 47 bf
       -0.8729555 -0.37247887 1.6755165 -0.78124046
0003d0 aa 5e 83 bf 1e de c4 3f 79 e2 50 bf 8e ab 8e bf
       -1.0263264 1.5380285 -0.8159557 -1.1146104
0003e0 9a 50 92 3e e7 ad 9f 3e 46 3a 6d bf 6f 3d 93 bf
       0.2857712 0.31187364 -0.92667043 -1.1503123
0003f0 2f cf 72 bf 42 cc a8 3f 08 7e 60 3d ac eb 35 be
       -0.9484739 1.3187335 0.054807693 -0.17765683
