C2/cnn/dense1_weights.npy (npy, 18560 bytes, 1 tensors)

array f4 [96, 48]
000000 ff ea 2e 3f 52 3d bc bc 0b dd 35 3e 78 63 5a 3f
       0.68327326 -0.022978459 0.17760102 0.8530803
000010 42 d1 89 3f ef ac 01 bf e2 7e e5 bf 56 55 0a bf
       1.0766985 -0.506545 -1.7929347 -0.5403646
000020 d6 9a cf bd db 2a e6 3e ec 5d 55 3f 2e 17 24 bf
       -0.101369545 0.4495457 0.8334644 -0.6409787
000030 4e 2c 31 be d4 e1 14 3f 59 be e2 bf 9f cd 7d 3f
       -0.17302057 0.58157086 -1.771434 0.9914188
000040 1e 65 0a 40 a4 e0 c5 be 5f 10 24 bf 6d 44 e7 bf
       2.1624217 -0.3864795 -0.6408748 -1.8067757
000050 71 1b b5 be 48 36 a6 bf d6 14 19 c0 f1 4f 84 bf
       -0.353725 -1.2985315 -2.3918967 -1.0336896
000060 a4 53 08 3f d9 10 99 bf b2 73 a9 bf 5c aa 5d 3d
       0.53252625 -1.1958266 -1.3238432 0.054117545
000070 0d 18 a3 3e e5 5c db 3f d6 a0 42 3f 5a c8 db be
       0.31854287 1.7137724 0.76026666 -0.42926294
000080 54 5b 48 bf e7 7f 5e bf 8b c1 1f 3f 67 63 e2 3e
       -0.78264356 -0.86913913 0.624047 0.44216463
000090 a3 e0 03 bf 5c 2b ef 3e 8d 6e 82 3f 4c c6 30 3f
       -0.51514643 0.46712768 1.0189987 0.69052577
0000a0 07 5f 38 40 31 ee 13 bf 14 f7 37 3e 8b 1f d6 bd
       2.8808 -0.57785326 0.17965347 -0.10455235
0000b0 1f 1b be 3e d9 43 21 3f d3 ce d2 3f 3b 6e c6 bf
       0.37130067 0.6299415 1.6469368 -1.550239
0000c0 29 d0 b8 3f b7 c4 22 bf e5 67 5c 3e 54 a7 8b bf
       1.4438525 -0.63581413 0.21524008 -1.091044
0000d0 32 e6 f6 bf 80 21 43 bf c1 4e c0 bf ee 5e a7 3e
       -1.9289 -0.7622299 -1.5024034 0.32689613
0000e0 90 12 18 bf db f9 26 bf a3 8c de bf 10 71 1d bf
       -0.59403324 -0.65225 -1.7386669 -0.61500645
0000f0 d0 15 49 3e fc 58 9e 3f 73 04 a1 bf d0 f9 f6 be
       0.19637227 1.2370906 -1.2579483 -0.48237467
000100 a0 bd 77 bf 73 0f 9a bf 51 41 bf bc 0d 7a 8d 3e
       -0.9677372 -1.2035965 -0.023346575 0.2763218
000110 81 09 2c 3f 3e fc 07 bf a9 40 3d be 2a 97 a3 3f
       0.67202 -0.53119266 -0.18481697 1.2780507
000120 73 99 97 bf e2 53 19 3e 95 69 47 be 2f ae 40 bf
       -1.1843704 0.14973405 -0.1947387 -0.75265783
000130 e6 4a bb 3f 27 f0 2b 40 e8 db f5 be 24 e4 03 3e
       1.4632232 2.6865327 -0.48019338 0.12879997
000140 c8 5e da bf ef 59 9e 3f f8 14 00 be c1 19 e7 bf
       -1.7060175 1.2371196 -0.12507999 -1.8054734
000150 e2 e4 0c 40 06 f5 9b 3f 0e d1 3c 3f 73 bd 48 bf
       2.20147 1.218415 0.7375649 -0.78414077
000160 ec 89 1b 3f d7 5a 97 be da da bb 3f c9 c9 b9 bf
       0.6075733 -0.29561493 1.4676163 -1.4514705
000170 8a 39 c8 be 84 18 58 40 d4 f7 87 bf f4 95 0f 3f
       -0.391064 3.3764963 -1.0622506 0.56088185
000180 b7 4d 5a bf 2e 06 84 bf ec da 8d 3e 4d e0 aa bf
       -0.85274833 -1.0314386 0.27706087 -1.3349701
000190 3e 8a 18 3f 4f b1 26 3e 59 38 0f bf 1d b1 55 be
       0.5958594 0.16278575 -0.55945355 -0.20868345
0001a0 06 2f 3f 3c 2b a4 b8 3d 2f f6 5a 3e 08 77 9a 3e
       0.011668926 0.090156876 0.21382974 0.3016894
0001b0 cd 73 de 3c 90 bd b9 3f 58 1e 90 3e 65 8d 0f c0
       0.027154827 1.4510975 0.2814815 -2.243005
0001c0 61 2b 80 3f 69 4e 8e 3f 11 bb 7a be 7b f1 8d 3f
       1.0013238 1.1117679 -0.24485423 1.1089319
0001d0 7c b2 55 3e 23 02 e7 3e bc 77 6d bf f5 5e 38 bf
       0.20868868 0.45118818 -0.92760825 -0.7201989
0001e0 34 c3 6d 3e 57 8f f2 bf 19 b8 e5 3e 6d d7 17 40
       0.23218995 -1.8949994 0.44867018 2.3725235
0001f0 1f 67 a1 bd ca bd c7 3e 91 e7 d0 bf 70 34 be bf
       -0.07880997 0.39011985 -1.6320668 -1.4859753
000200 62 62 99 bf d2 3f 90 bf 4a 53 16 bd 21 25 22 bf
       -1.1983149 -1.1269476 -0.036700524 -0.63337904
000210 e0 db 34 be 17 08 88 3e 5f 69 c4 3e 82 c0 37 3f
       -0.17662 0.26568672 0.38361642 0.7177812
000220 19 6a 1b bd b1 ad ea 3f bb 41 6b 3d 63 4f dd 3d
       -0.03794298 1.8334256 0.057435732 0.108061574
000230 48 cd f2 be 0b 61 aa bf d3 89 a2 bf 4f 61 04 40
       -0.47422242 -1.3310865 -1.2698311 2.0684392
000240 56 92 99 3e b1 5d 68 3e eb 2f e7 3e ae df 91 bf
       0.29994458 0.2269199 0.45153746 -1.1396387
000250 9e c1 8e bf 49 84 d6 bf d9 33 bc 3f e7 7c 16 bf
       -1.1152837 -1.675912 1.4703323 -0.58784336
000260 30 73 ef be 49 17 1d bf b0 38 40 bf bd b7 41 bf
       -0.4676757 -0.61363655 -0.750865 -0.7567099
000270 13 e3 1b 3f 22 14 8f bf fa 97 ac be aa a5 ae 3e
       0.6089336 -1.1178019 -0.337097 0.34110767
000280 60 b8 b7 3f 50 f8 5c bf 0e 5b 44 bf f1 b1 cf bf
       1.4353142 -0.86316395 -0.7670144 -1.6226178
000290 a3 3b dc 3f cf ee b7 bf e7 ae 08 be 5c 88 68 3f
       1.72057 -1.4369754 -0.1334797 0.9083307
0002a0 99 96 6b bf 17 8a a2 3f 82 02 57 3f aa 68 2c be
       -0.9202667 1.2698392 0.839882 -0.16836801
0002b0 8f c3 1c 3e 0e 4c 01 40 82 76 a6 be 12 54 be be
       0.15308975 2.020267 -0.3251229 -0.37173516
0002c0 10 9d 87 3f 7b 53 69 3f bd 06 3c 3f 1f 6e 81 bf
       1.0594807 0.91143006 0.7344778 -1.0111731
0002d0 0d 44 a8 3f 47 47 06 40 7a 9e bc bf 97 08 02 40
       1.3145767 2.0981004 -1.4735863 2.0317743
0002e0 69 50 92 be e0 e6 83 be 50 98 ac 3f 34 3d 14 3f
       -0.28576973 -0.2576208 1.3483982 0.5790589
0002f0 bf 2a d1 be bc e0 ac 3e d2 4b e6 be e1 7e 2f bf
       -0.40852925 0.3376521 -0.4497972 -0.68552977
000300 54 bf 93 3f 1c 24 41 bf 00 a6 99 bf 2f fc 3b 3f
       1.1542764 -0.75445724 -1.2003784 0.73431677
000310 04 3b 01 3f dc 67 f3 be 05 ed 93 3e 12 c5 9b 3d
       0.50480676 -0.47540176 0.2889177 0.076059476
000320 6a 03 14 c0 9f ff 7a be 76 41 2d 3e 17 08 ba be
       -2.3127084 -0.24511574 0.16919503 -0.36334297
000330 d6 18 b4 bf 96 31 9c bf 97 0a 85 3f ab bf e4 bf
       -1.4070079 -1.2202632 1.0393857 -1.7870992
000340 d9 c1 db bf 68 e3 cc be 99 d3 8a be 26 2a 99 3f
       -1.7168533 -0.40017247 -0.2711456 1.1965988
000350 bc 5c 07 3f 0f 13 79 3f bc ad 61 3f ac 11 16 bf
       0.52875876 0.97294706 0.8815572 -0.58620715
000360 59 c3 a8 3f 26 f8 14 be 13 4a 46 bf 7f 94 c6 3e
       1.3184615 -0.14547786 -0.7745678 0.3878517
000370 d3 42 97 3f 25 2a 34 3f f7 81 16 3f 1f 79 77 3f
       1.1817268 0.7037681 0.5879206 0.9666919
000380 9b 12 14 be 5f 1d dc bf 1e 3f 16 bf fe f6 1b c0
       -0.14460222 -1.7196463 -0.5869006 -2.4369502
000390 d5 7e 26 bc 54 28 86 3f 2b 2e 21 bf d5 b5 1f 3f
       -0.010162075 1.0481057 -0.6296107 0.6238683
0003a0 14 75 b3 bf e9 53 82 3f 52 e6 d2 3e c3 a7 e4 be
       -1.4020104 1.0181857 0.41191345 -0.44659242
0003b0 65 b8 2a 3f 19 99 95 3e 17 8a bb bf 14 61 4c 3f
       0.66687614 0.29218367 -1.4651517 0.7983563
0003c0 e3 fc 2e 3f 50 41 d3 bf 73 8c b6 bf 36 9b 8e 3e
       0.68354625 -1.6504307 -1.4261612 0.27852792
0003d0 69 78 c3 bf f0 db 28 3f 70 23 bd 3e 7b 37 d9 3e
       -1.5271121 0.659606 0.369411 0.4242514
0003e0 42 b7 85 bf 20 18 e0 bf 0f 92 81 bf 8b ae a8 3f
       -1.0446551 -1.7507362 -1.0122699 1.3178266
0003f0 3b b8 3a be 6a 90 8e bf 04 33 02 3f 48 a7 83 bf
       -0.18234341 -1.1137822 0.50859094 -1.0285425
