C1/cnn/dense1_weights.npy (npy, 16512 bytes, 1 tensors)

array f4 [64, 64]
00000000: 98f9 abbf 762d 373f 1c6e d7bf d541 153f
00000010: 6993 533f ae96 9cbf d4b4 56bf 9c00 303e
00000020: a2e8 cc3f 5e11 0b3e 1512 70bf 8710 3ebf
00000030: 6e59 c73f cfaf ebbe d1b0 07c0 71ca 1a3f
00000040: a189 a6bf 52b7 86bf e393 cb3f b237 c33e
00000050: 6928 a23f eaf2 4bbf 0605 e13f d0f5 443e
00000060: 0596 ac3f 63eb 88bf 7544 43bf 6bb6 10c0
00000070: 2e55 743f 1dc2 babe 0eb5 323e 3ce4 73bf
00000080: bb03 f03f 3b9a c2be 4d96 06c0 436a 933f
00000090: 569e 693e 70ab d13e 3927 56be 8b66 023f
000000a0: 3ac0 cabe c615 063f 1f33 e23f 9fb0 883f
000000b0: f84b 9ebe 3b0a 2ec0 798c e1bf e20f c9be
000000c0: c61d aabb 97fd 873f bdef 44bd e5dc 04be
000000d0: 62fb 7ebf c42c 9cbf 8eae e5bd ce33 2bbf
000000e0: 3227 233f 830a 913f a2f2 63bf 1a79 d3be
000000f0: 4c22 69be 8081 61bf c59d 6b3d 8b04 ca3e
00000100: 6140 cd3e 0fe5 6cbf c9cd 323f 9c67 9c3e
00000110: d55e e73e 1433 d6be 26b4 233e bb2f 75bf
00000120: cf03 193f 14fd 37bf b82f 5c3f 0a92 953f
00000130: ab7b 74bf 80e8 e03f a74f 0fbf a4c8 2940
00000140: 822f cfbf bd69 d4be 3312 13bf 8d90 95be
00000150: 2f6c b5be fc50 bfbf c92a 3a3f 6571 893f
00000160: d231 313b 1872 f3bf f2c7 3e3f 10d8 593e
00000170: 6105 273f 71a9 d2be c818 da3f 7de5 04bf
00000180: aee4 d93f 53e2 31bf 2d9b bc3e 0d41 6cbf
00000190: 865a 00bf c153 d73e 14b2 46be 7636 873f
000001a0: 21b0 8b3f 6b06 0f3e 7df8 523f c1c9 d5bf
000001b0: bfbb d9bf 94a5 7f3f e42c 533f 7353 533f
000001c0: 1ac4 123f a337 423e 2750 073f bd10 d43e
000001d0: b161 00bf 7e22 003f 7fb9 c33e 59dc 113f
000001e0: bf19 7cbe 7a44 0e3e 4334 5cbf 02f2 9c3e
000001f0: ace0 dabf ae61 143f f80e c7bf 2879 05bf
00000200: 390d 9bbf 4c7b f8be 7f52 2b3f 3b43 a5bf
00000210: 818e c8bd 7a3a 6b3f edfc 2bbe 48e9 06bf
00000220: 5897 b53f 59fb 3ebf 60cf bd3f acac 54be
00000230: 1526 be3e 0fa0 ba3f 9ace 9b3f 21c0 abbd
00000240: b288 e43e 1752 94bf 5aca ddbe 21be 21be
00000250: 40a1 d63e 5027 8dbf 6a50 bd3f 8cd1 afbf
00000260: e8e5 9bbe b34b 083f 5124 233f 6fbb 12bf
00000270: 5efd 353f 3327 243f e2b1 0fbf 0b10 c8bf
00000280: 2c78 ab3f a30e b9be f2ea 7fbf 54be e6bf
00000290: b2e2 7abf 3a93 5fbe 08eb 9e3f 0d73 a6bf
000002a0: ef3f a63e b04b 71bf a550 3d3e 2170 78bf
000002b0: 5e09 5c3f 6e78 433f 2e33 683e 2d94 543f
000002c0: 27a0 363f 5764 7e3f 3d95 8c3f c53d 08bf
000002d0: ec0b 38bf 4485 60bd e9ef 60be bcf8 b23f
000002e0: 4fc9 d2be 3c4c 2540 24fd 2c3f af51 313f
000002f0: 2188 84bf 5c7e 843f a952 e2be 7409 2dbf
00000300: eecb 363f fc36 073f fce0 87bf 2880 eb3e
00000310: 7555 a43f 8683 32bf 5f82 ee3d 9d33 053f
00000320: d5e9 cbbe 2b9f f13e c51c c0bd 477f 44bf
00000330: afb9 07bf ca8a 4dbf 6ffe 2a3f 2bda a3bc
00000340: 3f26 b63f 49c5 d73e a774 b83f e8f2 83bf
00000350: 40f2 253f 82c3 1cbf 1c22 b23f a0e0 473f
00000360: f75d 9ebf 78a6 e0be 175a d43f 7733 5dbe
00000370: 9ec7 b53f 68ec 9fbe 2b7f 1e3e d0e3 8abf
00000380: 6a9e 16be 7361 f53e 8f07 1140 9c4f e33e
00000390: 1fc7 013f ffc2 573e c92e 68bf 490a 1fc0
000003a0: feeb 6ebf 5503 ac3f 9650 cebd f39b e7bd
000003b0: afc2 67bf 3e56 873f 9cae fd3e 0d8b 88bf
000003c0: a6eb 1bbf a308 9c3f 4f31 05bf 8f81 333e
000003d0: e883 af3f eeb5 70bf acd6 733f 334c a5bf
000003e0: 95eb d9be 7905 4d3f ce2a 24bf 230b ef3d
000003f0: a754 8d3f 0861 e43e 70b8 c0bf 6184 563e
-1.3435545 0.7155374 -1.6830478 0.58303577 0.82646805 -1.2233484 -0.8386967 0.17187732
1.6008494 0.13580844 -0.9377759 -0.7424397 1.5574167 -0.4603257 -2.120167 0.6046515
-1.3010751 -1.0524695 1.5904506 0.3812843 1.2668582 -0.7966753 1.7579658 0.19234395
1.3483282 -1.0696834 -0.7627633 -2.261134 0.95442474 -0.36476222 0.1745188 -0.95270133
1.8751138 -0.38008294 -2.1029236 1.1516804 0.22814307 0.4095111 -0.209134 0.5093772
-0.39599782 0.52376974 1.7671851 1.06789 -0.30917335 -2.7193744 -1.7620994 -0.3926993
-0.0051915376 1.0624264 -0.048080195 -0.1297489 -0.9960233 -1.2201161 -0.11214934 -0.6687592
0.6373168 1.1331333 -0.89042103 -0.4130333 -0.2276699 -0.88088226 0.057523508 0.3945659
0.4008818 -0.92537016 0.69845253 0.30547798 0.4518954 -0.41835845 0.1598669 -0.95775956
0.59771436 -0.7187054 0.86010313 1.1685193 -0.955012 1.7570953 -0.55980915 2.6528711
-1.6186373 -0.41486922 -0.57449645 -0.29211846 -0.354341 -1.494659 0.72721535 1.073773
0.0027037752 -1.9019194 0.7452384 0.21273828 0.6524258 -0.411449 1.7038813 -0.5191267
1.7022913 -0.6948597 0.3683714 -0.9228676 -0.5013813 0.42056087 -0.19403869 1.0563495
1.0913125 0.13967292 0.82410413 -1.6702195 -1.701042 0.9986203 0.8249037 0.8254921
0.5733048 0.18966536 0.5285668 0.4141902 -0.50149065 0.5005263 0.3822746 0.5697685
-0.24619196 0.13893309 -0.86017245 0.30653387 -1.7099814 0.5796155 -1.5551443 -0.52137995
-1.211341 -0.48531568 0.66922754 -1.2911142 -0.097928055 0.91886103 -0.16795702 -0.5269971
1.4186811 -0.74602276 1.4828911 -0.20768994 0.3713843 1.4580096 1.2172425 -0.08386255
0.4463554 -1.1587552 -0.43318444 -0.15795185 0.419199 -1.1027622 1.4790165 -1.3735824
-0.30448842 0.5324051 0.6372729 -0.5731725 0.7108973 0.64122313 -0.561308 -1.5629896
1.3396049 -0.3614398 -0.99967873 -1.8026834 -0.9800216 -0.21833506 1.2415476 -1.3003861
0.32470652 -0.94256115 0.18487795 -0.97046095 0.85951793 0.76355636 0.22675774 0.830386
0.71338123 0.99371856 1.0983044 -0.5321925 -0.7189319 -0.054814592 -0.21966518 1.3982158
-0.4116921 2.582778 0.6757376 0.69265264 -1.0354043 1.0351062 -0.4420369 -0.6759255
0.7140492 0.52818274 -1.0615535 0.45996213 1.283858 -0.6973194 0.1164596 0.5203188
-0.39826837 0.47191748 -0.09380487 -0.7675671 -0.53017706 -0.802899 0.66794485 -0.020001492
1.4230422 0.42142704 1.44106 -1.0308504 0.6482277 -0.6123582 1.3916659 0.78077126
-1.2372426 -0.43877006 1.6589993 -0.21601664 1.4201543 -0.3123505 0.15478198 -1.0850773
-0.14708868 0.4792591 2.2660863 0.44396675 0.5069446 0.21070479 -0.9069639 -2.4850028
-0.93328846 1.3438517 -0.10073964 -0.11309042 -0.9053144 1.0573194 0.4954728 -1.0667435
-0.60906446 1.2190136 -0.52028364 0.17529891 1.371213 -0.940276 0.9524944 -1.2913879
-0.42562547 0.80086476 -0.64127815 0.11672046 1.1041459 0.4460528 -1.5056286 0.20948936
