C1/cnn/dense1_weights.npy (npy, 16512 bytes, 1 tensors)

array f4 [64, 64]
00000000: 5829 2f3f dc9d ffbd d35f 633f 1e79 47bf
00000010: b57d 08bd 270c 253f bc5c dc3c 4489 943f
00000020: b3e5 4e3f 4c5b 303f b64d 5bbf aa98 113f
00000030: 9d15 9a3d fbda ff3e d2b3 8fbf 1d63 3b3e
00000040: 5813 e53e 3240 493f e078 8f3e 1918 babc
00000050: 98b3 a6be 4bb0 00c0 2b24 d2bc e8e8 e3be
00000060: 2e2a c03e 32a9 e9bf 6087 bcbf 5dd7 24bf
00000070: 971d 833e 091c 593f 4cd1 2e3f 28f5 edbe
00000080: d9a7 abbf 36b1 b93e 1ae9 f23f 030b 9d3e
00000090: c627 10bf 8374 57be a0bd 9ebf bd25 ae3f
000000a0: 7b01 e5be 5c03 8dbd 448b a3be a492 90bf
000000b0: 5a52 b53d 19b5 aa3e 1dfa d73f 960c 9ebf
000000c0: fd16 d7bf 4990 84bf 72db f4bf 2a37 803f
000000d0: fcfa 8ebf ce87 fe3f a732 7cbd b255 8bbf
000000e0: ee85 ddbd d7d1 fc3f eae1 c23d 4900 e0be
000000f0: 12d0 383e 86cd fe3e d1dc da3f 4409 713d
00000100: 703b 363f d06c 3ebf 6847 b33f 1f1e a13f
00000110: d314 773f 6cb3 28bf 990a 5d3e 3ef8 1b3f
00000120: 7361 9fbf a8b5 eebe e48b 8f3e c2b2 0cc0
00000130: f327 153f f6f9 f03e b866 bd3e d754 c9bf
00000140: af2d 513f bdcd 6a3f 07b0 1c40 6ac1 17bf
00000150: 7f61 273f a778 b13f af7c 343e 8cbe d33f
00000160: 88bc d03e 941e 81be 802d 78bf 8a36 9b3e
00000170: ee8a 00bf 165a 653e 0a5d b1bd 7cc6 2dbf
00000180: 3119 9ebf 86ae cc3f 2a66 583f ef70 c53e
00000190: a685 813e f037 b63f 4bc1 a73f 2a8b cbbf
000001a0: 1af3 ae3f 2c34 a73d 8752 933f 0772 b3be
000001b0: b71f 2d3f 7dba b5bf 9758 bebd 56e6 d03f
000001c0: 6a81 70bf 9253 8c3e 14ba fbbe 8532 293f
000001d0: bb63 c9bc 3b7f f03e ca30 f5bf 14c6 09bf
000001e0: f428 f43f ad71 9e3c 5f8c 04bf 33f4 63bf
000001f0: c971 81bf 947e 673f 57f5 44bf 86c6 7b3e
00000200: 44ff 85bd 2575 eb3f 9b86 de3f 5131 5ebf
00000210: e2d1 19bf 6839 3a3f 80f2 49bd 788f ab3f
00000220: 056d 053e 5217 9f3f d6f1 bd3f 8c02 24bf
00000230: 58d9 d23d c5de 25bd db8a 61bf 4745 923f
00000240: 7d38 0ec0 68c1 b13d e1bd 00c0 bc44 6bbd
00000250: 7aed be3f 2194 9c3d 8e02 05c0 5eb3 b23f
00000260: 2341 8cbe 5d28 b1be ad04 613e 80c3 febf
00000270: 52b5 1ebf 018e 593f 6004 83bf c99f 2040
00000280: 5f31 2f3f 03d7 32bf e38a 0ebf 7d11 a7bf
00000290: 4a5e ef3e b8f8 cbbf b04f 8bbf cdef e03e
000002a0: 15dc ca3e 78e5 923f acf9 febe 222e 1c3f
000002b0: a1ec 10c0 7b4c ce3e 6909 463f ca95 fcbf
000002c0: a4e8 9c3e 832c 203f 6ecc 983f 30ad 2abf
000002d0: 85c6 acbf fe19 453f 6bd1 8f3f 0a59 91be
000002e0: a12e a93f 53eb 503f 5ff8 dbbe 9da4 b93f
000002f0: c09d 5c3f 07af 0cbe 0450 99bf bc08 a0bf
00000300: bcf7 b6bf 3470 0ec0 b546 d03f c1d1 113f
00000310: 303d acbf 72da ca3e a849 ab3e b649 7a3f
00000320: 3c31 9c3e eed1 e0bf f3df 383f 27f2 13bf
00000330: bfda 34be f66b 9cbf 9764 193f 78be 0f3e
00000340: c9b4 0c40 7c3e c7bf 7d66 98bf 3a07 9a3f
00000350: c680 8e3f 9090 8bbe f3f1 06c0 bf7b 833f
00000360: 4f19 b53f 41f8 5b3f 4759 8a3f 7de0 0dc0
00000370: bd70 533e 4ded 073f 15af 9a3f e061 fbbb
00000380: aa02 8d3f b697 a0be 0439 3940 46fe 2b3f
00000390: 0e1d 003e 715d 823f 8b08 33bf 3bfc a13e
000003a0: 2fc2 9f3e 7721 6bbf 90c7 223e ca70 8cbf
000003b0: 6d53 e93e cbf9 2cbe e4cb 51bf 7a72 953f
000003c0: bdac 503f 44e5 4e3e 3fc3 1b3f b5e7 973f
000003d0: 188c b43f 4739 0a3f 7c36 84be 7355 56c0
000003e0: c1b3 ec3e feae 533e b65e ecbe 0945 153e
000003f0: 3b5e d73f e146 9d3e 699b a13f da83 55bf
0.6842246 -0.12481281 0.8881809 -0.77919185 -0.03332301 0.6447167 0.026899688 1.160439
0.80819243 0.6888931 -0.8566545 0.5687357 0.07523654 0.49971756 -1.1226752 0.18299527
0.4474132 0.7861358 0.28021908 -0.022716569 -0.32558894 -2.01076 -0.025652012 -0.4451363
0.3753218 -1.8254759 -1.4728813 -0.6439112 0.25608513 0.84808403 0.6828811 -0.46476102
-1.3410598 0.36268014 1.8977387 0.30672464 -0.5631069 -0.2104054 -1.2401619 1.3605267
-0.44727692 -0.068854064 -0.3194219 -1.1294751 0.08853598 0.33341292 1.6873204 -1.2347591
-1.680389 -1.0356532 -1.9129469 1.0016835 -1.1170344 1.9885194 -0.061571743 -1.0885527
-0.10816561 1.9751538 0.09515746 -0.43750218 0.18048123 0.49766177 1.7098638 0.058846727
0.71184444 -0.74384785 1.4006166 1.2587317 0.9651615 -0.65898776 0.21586074 0.6092566
-1.2451614 -0.46622968 0.28036416 -2.1984105 0.5826408 0.47065705 0.3699243 -1.5729016
0.8171033 0.9172018 2.4482439 -0.592795 0.6538314 1.3864945 0.17625688 1.6542525
0.40768838 -0.25218642 -0.9694443 0.30315048 -0.5021199 0.22397646 -0.08660324 -0.6788099
-1.2351438 1.599076 0.8453089 0.38562724 0.25297278 1.4235821 1.3105863 -1.5901845
1.3667939 0.08164248 1.150956 -0.35047933 0.6762652 -1.4197537 -0.09294241 1.6320293
-0.9394747 0.2740751 -0.49165404 0.6609271 -0.024583688 0.4697207 -1.9155514 -0.5381787
1.9074998 0.019341314 -0.5177669 -0.89044493 -1.011285 0.9042752 -0.7693686 0.2458745
-0.06542829 1.8395125 1.7384828 -0.86794 -0.6008588 0.72743845 -0.04930353 1.3403158
0.13029869 1.2428992 1.4839427 -0.64066386 0.10295361 -0.040495653 -0.881025 1.1427392
-2.2221978 0.086794674 -2.0115893 -0.057438597 1.4916222 0.07645441 -2.078281 1.3960989
-0.27393445 -0.34601107 0.2197444 -1.9903412 -0.6199542 0.84982306 -1.023571 2.5097525
0.6843471 -0.6985933 -0.55680674 -1.3052212 0.46751624 -1.5935278 -1.0883694 0.43932953
0.39621034 1.1476278 -0.4979986 0.61007893 -2.2644427 0.40292725 0.7735811 -1.9733212
0.3064624 0.6256792 1.1937387 -0.66670513 -1.3498083 0.76992786 1.1235784 -0.28388244
1.3217355 0.81609076 -0.4296293 1.4503361 0.8617821 -0.13738643 -1.1977544 -1.2502666
-1.4294353 -2.2255983 1.6271578 0.56960684 -1.3456173 0.39619786 0.33454633 0.97768724
0.30506313 -1.7564065 0.7221672 -0.5779137 -0.1766157 -1.2220447 0.5991911 0.14037502
2.1985343 -1.5565944 -1.1906277 1.2033455 1.1133049 -0.2725873 -2.1085174 1.0272139
1.4148349 0.8592568 1.0808495 -2.2168267 0.20648475 0.5309647 1.2084681 -0.0076715797
1.1016438 -0.31365746 2.894105 0.67184865 0.12511083 1.0184766 -0.6993491 0.3163775
0.31202838 -0.9184794 0.1589644 -1.097192 0.4557146 -0.16892163 -0.8195174 1.167556
0.8151358 0.20204645 0.60844797 1.1867586 1.4105253 0.5399365 -0.25822818 -3.3489654
0.4623089 0.20672223 -0.4616601 0.14577116 1.6825632 0.3071814 1.2625552 -0.83404315
